model/keypoint_classifier/keypoint_classifier.tflite (tflite, 7544 bytes, 6 tensors)

sequential/dense/BiasAdd/ReadVariableOp f4 [20]
0.5106259 -0.2976818 0.87841415 -0.9970797 0.6121718 0.7880157 -0.27993277 -1.0935502
0.7483333 -0.09454148 -0.9416872 -0.2714335 1.3396086 -0.24050918 -0.29802212 -0.055209957
-1.571867 -0.43518522 0.34301376 0.62728864
00000000: 61b8 023f c069 98be c0df 603f 9d40 7fbf
00000010: 4bb7 1c3f 66bb 493f 5953 8fbe 74f9 8bbf
00000020: c592 3f3f f79e c1bd 6a12 71bf 55f9 8abe
00000030: 4b78 ab3f 0a48 76be 5b96 98be d623 62bd
00000040: f032 c9bf 99d0 debe 809f af3e fd95 203f

sequential/dense_2/BiasAdd/ReadVariableOp f4 [28]
-1.6149335 0.122759 -1.1769068 1.224003 0.8310076 1.1349103 0.19935605 -0.66771615
0.89711076 -0.5139971 -0.22443 1.2678468 -1.7950062 -0.57927614 -1.0423298 0.18968841
-0.55774695 0.4902048 0.011763067 0.3703227 0.9751822 0.40353248 0.8455013 -0.71089685
-0.3123644 0.57775795 -0.56698465 -0.21764359
00000000: 24b6 cebf 1269 fb3d e2a4 96bf 21ac 9c3f
00000010: eabc 543f be44 913f fe23 4c3e 72ef 2abf
00000020: 0da9 653f 5095 03bf fad0 65be ce48 a23f
00000030: c3c2 e5bf 714b 14bf 106b 85bf ae3d 423e
00000040: 81c8 0ebf 20fc fa3e e1b9 403c f09a bd3e
00000050: 8aa5 793f cf9b ce3e c672 583f 56fd 35bf
00000060: 3aee 9fbe f2e7 133f e825 11bf f6dd 5ebe

sequential/dense_1/BiasAdd/ReadVariableOp f4 [10]
-0.91055715 1.6140474 -0.5816506 -0.32312673 0.7910424 1.1801561 0.39528003 0.38398707
0.01969083 2.1726072
00000000: 461a 69bf 1b99 ce3f 0ee7 14bf de70 a5be
00000010: c181 4a3f 5b0f 973f 2562 ca3e f499 c43e
00000020: aa4e a13c ff0b 0b40

sequential/dense/MatMul f4 [20, 42]
0.24445486 0.11627132 0.28512964 2.1114075 0.033328354 0.88239765 0.0530252 0.27938715
0.28661817 0.08302596 -0.56816995 0.3269176 -0.47846326 0.19435996 -0.52515143 0.032415595
-0.6054011 -0.1331984 -0.75799114 0.30420867 -0.31739113 0.127973 -0.2608634 0.15079488
-0.18634495 0.16387834 -0.7380043 0.25292677 -0.59418076 0.15415137 -0.20442058 0.4819875
-0.21210474 0.47696438 -0.65605474 0.25850287 -0.33856657 0.09835351 -0.107040465 0.4449836
-0.0097818 0.5324102 -0.20815727 -0.16557695 0.8698849 1.2148914 0.491596 0.5312132
0.17471619 0.35499138 -0.47958413 0.22261816 0.5243856 0.2931435 0.371941 0.23023401
0.2863923 0.14992577 0.18410745 0.11341148 0.34855542 0.24034256 0.37594682 0.10463214
-0.080556326 -0.19873674 -0.73396295 -0.37421796 -0.4750789 0.18180174 0.2727706 -0.026884675
0.29408428 -0.70525956 -0.25169507 -1.4899646 -0.8335232 0.07396349 -0.18873003 -0.06614602
-0.23313029 -0.4573394 -0.51560557 -0.93768775 0.09390572 0.14380395 0.7629063 -0.3650835
0.5127968 -0.09679611 0.6341858 -0.010316888 0.7113275 -0.007294486 0.2341506 -0.16861308
0.21890713 -0.10050894 0.26881173 -0.112309754 0.35018274 -0.039705504 0.25874025 -0.13363539
-0.058312356 -0.122433946 0.25613946 -0.29844218 0.6393659 -0.41011944 -0.24517687 -0.08222538
-0.29208347 -0.030729242 -0.07385699 0.09449045 0.15756604 0.118942454 -0.42947847 0.10033454
-0.80671865 0.1946262 -1.071714 0.3227305 -1.1699793 0.41744167 -0.26352856 0.14465332
-0.020853756 -1.6292648 0.1198282 -1.1528906 0.13202786 -0.83958095 -0.064206004 -0.74131584
-0.08332115 -0.123841405 -0.3238279 -0.022417342 0.099984534 0.15895437 0.2207173 0.2832336
-0.95273054 -0.07317605 -1.0221539 -0.12647614 -0.25882113 -0.15428488 0.49489865 -0.11960546
-0.84202456 -0.12550117 -1.1592817 -0.18247065 -0.8916807 -0.05376807 -0.07797136 0.07190049
-0.19723634 -0.22038801 -0.7398567 -0.2081304 -0.78523105 0.14043702 -0.6892282 0.33967796
0.098899424 0.121294916 0.9805141 0.47471797 0.77326936 0.34100452 0.33363262 0.8569256
0.20358498 1.2276177 0.78172976 0.010288714 0.22906303 0.20855525 0.3082938 0.27176917
0.4853063 0.54512304 0.40048924 0.21305586 0.35013035 0.55046546 0.27856612 0.64086556
0.11399017 0.6101832 0.3712324 0.38638946 0.26691958 1.2201784 0.1299695 0.71702933
0.011410451 0.5952059 0.35974264 0.97274524 0.18737632 1.2867508 0.1359115 0.83596903
0.443048 1.0283123 -0.18946457 0.09775388 0.058543257 2.1854467 -0.07357319 1.209492
0.18886259 0.38919014 0.17900793 0.18056259 -0.72535527 0.6964768 -0.66787255 0.38591337
-0.60640174 0.22545154 -0.466615 0.03100683 -0.55241746 0.4553998 -0.6233538 0.4409734
-0.7482992 0.58940923 -0.5362317 0.43482578 -0.7935586 0.23566078 -0.55562764 0.36696523
-0.5610117 0.48873588 -0.5319639 0.47409162 -0.6802205 0.15412685 -0.5320079 0.409124
-0.14518867 0.6079721 0.39209723 0.6820508 0.061689854 0.042198807 -0.08937359 -0.6518236
00000000: 6052 7a3e a81f ee3d 83fc 913e 4d21 0740
00000010: 5083 083d d0e4 613f f430 593d d50b 8f3e
00000020: 9ebf 923e 8409 aa3d 9673 11bf be61 a73e
00000030: 23f9 f4be 4c06 473e 5370 06bf 37c6 043d
00000040: 91fb 1abf 2965 08be b50b 42bf 3dc1 9b3e
00000050: 1781 a2be 5b0b 033e e38f 85be f969 1a3e
00000060: 36d1 3ebe b9cf 273e daed 3cbf 9e7f 813e
00000070: 3b1c 18bf dbd9 1d3e a153 51be 11c7 f63e
00000080: fc31 59be ad34 f43e 34f3 27bf 7d5a 843e
00000090: 9958 adbe 916d c93d 0838 dbbd e4d4 e33e
000000a0: d843 20bc 094c 083f 2e27 55be 018d 29be
000000b0: c7b0 5e3f 9081 9b3f 79b2 fb3e 97fd 073f
000000c0: cde8 323e 6ec1 b53e 0d8c f5be 04f6 633e
000000d0: 223e 063f e816 963e 0d6f be3e 77c2 6b3e
000000e0: 03a2 923e 2486 193e aa86 3c3e 4744 e83d
000000f0: db75 b23e 5c1c 763e 1a7c c03e 6049 d63d
00000100: b7fa a4bd a581 4bbe ffe4 3bbf 7f99 bfbe
00000110: 8b3d f3be 3c2a 3a3e 97a8 8b3e 403d dcbc
00000120: 3792 963e e48b 34bf 2dde 80be 29b7 bebf
00000130: c761 55bf 2c7a 973d 7242 41be 9177 87bd
00000140: b5b9 6ebe 6428 eabe bafe 03bf 4e0c 70bf
00000150: a451 c03d 5841 133e d44d 433f 39ec babe
00000160: a746 033f 0a3d c6bd 005a 223f 2a08 29bc
00000170: 8f19 363f 9506 efbb 2dc5 6f3e e8a8 2cbe
00000180: 3129 603e a2d7 cdbd b1a1 893e a802 e6bd
00000190: 274b b33e 3da2 22bd 9a79 843e b7d7 08be
000001a0: f0d8 6ebd a6be fabd b624 833e 6acd 98be
000001b0: 7cad 233f 2dfb d1be a50f 7bbe c865 a8bd
000001c0: f78b 95be e4bb fbbc 5542 97bd 3684 c13d
000001d0: fe58 213e 1a98 f33d 9ae4 dbbe 327c cd3d
000001e0: 1d85 4ebf 174c 473e ed2d 89bf ef3c a53e
000001f0: e2c1 95bf eaba d53e 37ed 86be 0020 143e
00000200: 7fd5 aabc c08b d0bf 7d68 f53d eb91 93bf
00000210: 5032 073e c7ee 56bf 707e 83bd e0c6 3dbf
00000220: 47a4 aabd 90a0 fdbd c5cc a5be 93a4 b7bc
00000230: b1c4 cc3d efc4 223e b703 623e ff03 913e
00000240: 26e6 73bf 53dd 95bd f0d5 82bf f682 01be
00000250: 3484 84be dbfc 1dbe 5b63 fd3e b5f3 f4bd
00000260: ec8e 57bf 6183 00be 5863 94bf 96d9 3abe
00000270: 3045 64bf e83b 5cbd 73af 9fbd 9040 933d
00000280: 53f8 49be 65ad 61be 4067 3dbf 2320 55be
00000290: e704 49bf b9ce 0f3e 4271 30bf 45ea ad3e
000002a0: c88b ca3d 7869 f83d f902 7b3f 3c0e f33e
000002b0: fbf4 453f 2598 ae3e e5d1 aa3e 7a5f 5b3f
000002c0: 9578 503e 9422 9d3f 711f 483f ff91 283c
000002d0: 808f 6a3e 828f 553e afd8 9d3e 5425 8b3e
000002e0: 117a f83e 2f8d 0b3f ed0c cd3e 512b 5a3e
000002f0: 4944 b33e 4eeb 0c3f 38a0 8e3e c40f 243f
00000300: ae73 e93d f734 1c3f 2c12 be3e d7d4 c53e
00000310: afa9 883e ce2e 9c3f b916 053e 3c8f 373f
00000320: e6f2 3a3c 6a5f 183f 3030 b83e d505 793f
00000330: 94df 3f3e 40b4 a43f 622c 0b3e 1102 563f
00000340: 30d7 e23e bd9f 833f 0003 42be 3033 c83d
00000350: 0ecb 6f3d 5cde 0b40 8aad 96bd a2d0 9a3f
00000360: 3265 413e ee43 c73e db4d 373e 66e5 383e
00000370: e2b0 39bf 4e4c 323f b2f9 2abf 7096 c53e
00000380: 253d 1bbf c5dc 663e 29e8 eebe 0902 fe3c
00000390: 3b6b 0dbf 2a2a e93e 1d94 1fbf 44c7 e13e
000003a0: 8990 3fbf 86e3 163f 7b46 09bf 7ca1 de3e
000003b0: a826 4bbf 0f51 713e 9d3d 0ebf dee2 bb3e
000003c0: 769e 0fbf 973b fa3e c92e 08bf 23bc f23e
000003d0: ee22 2ebf 6ed3 1d3e ab31 08bf b378 d13e
000003e0: 57ac 14be 0fa4 1b3f f8c0 c83e e29a 2e3f
000003f0: 80ae 7c3d a8d8 2c3d 8009 b7bd e9dd 26bf

sequential/dense_1/MatMul f4 [10, 20]
1.4469647 -0.04341968 -0.828587 1.0147148 0.21183693 1.4069393 -0.35833836 0.3992963
0.7337845 0.64707744 0.52903426 0.25207052 0.5705523 0.24087493 -0.03730792 0.40849164
0.86903757 0.78817695 -0.8503676 0.14969967 0.48335075 0.4986737 -0.14902465 0.9956831
-1.902693 0.17621337 0.09640704 0.027760992 0.51856256 -0.31126475 0.04044721 1.2542382
0.3359523 -0.15177953 -0.14913255 -0.122202 1.2550218 1.0040884 0.10536657 -1.9843497
0.18483025 0.57645917 1.0944598 0.020412069 0.60002005 0.6199803 0.41601562 -0.94264567
0.08114973 -0.041782133 0.1787945 -0.29410812 1.4448389 0.49466994 0.39594632 -0.35504457
-0.27887395 0.36875618 0.52797663 0.48937765 0.96779156 0.3357327 -0.4911999 0.118873395
-0.27504644 0.53996384 0.63170326 2.2868662 0.057052262 0.32632962 1.0798956 0.7930533
-0.18982582 0.26009327 0.60672855 0.6534608 0.33921513 -0.13490893 0.17807506 -0.44578716
-0.18102422 1.9141477 0.62044173 0.37684473 -0.4801994 -1.2103972 0.14046293 0.67039466
0.034737803 0.0532304 -0.27414018 -0.25205743 -1.8612821 0.3012659 0.21464781 -0.27403235
0.44133055 0.63725907 0.5165232 -0.5683739 0.032318622 -0.59428316 1.4009854 0.47805655
-0.07287208 0.1106691 0.84939176 -0.59373355 0.006179353 1.1545588 1.0697275 0.19574597
-2.2912877 0.19048272 -0.20902266 0.050540812 0.21771213 0.32061502 1.0800854 -0.26695263
0.7578529 0.2856314 -0.07153281 -0.35642785 0.9238033 0.47353905 0.8042466 0.24644844
0.5419675 -0.38989964 0.76871336 0.5904848 1.1667895 -0.017365908 1.0397332 -0.1452133
0.84827125 -0.02913633 0.802256 0.71020097 0.29920918 0.19498114 -0.08942419 1.0158044
0.039939705 -0.20290937 -0.06405467 0.54337406 1.1871626 0.3587417 -0.107919626 1.1724029
0.11052016 0.9116955 -0.07582181 1.3894283 -0.0003850429 0.6077808 -0.058846172 0.030802762
1.0356265 0.6355656 0.8572734 0.444717 -0.11934469 0.47227886 -0.9183772 -0.05767604
1.0123105 0.4333016 -0.77887297 0.5208032 0.13911808 1.6769295 -1.8994402 0.6844715
0.16367432 1.2071369 0.61438423 -0.19809146 -1.0454725 -0.7335128 -0.16318224 0.41401324
-2.2597384 -1.1650494 0.112937726 0.08577955 -1.1631383 0.9854498 0.12886304 0.58226055
-1.4066719 -0.08720258 0.22280589 0.5860262 0.40963915 0.14714232 0.12713702 -2.5890052
00000000: 2436 b93f d6d8 31bd 471e 54bf 2de2 813f
00000010: c8eb 583e 9616 b43f 2078 b7be 9170 cc3e
00000020: 4dd9 3b3f dea6 253f ca6e 073f 630f 813e
00000030: b70f 123f eba7 763e 31d0 18bd d125 d13e
00000040: 3f79 5e3f f7c5 493f b1b1 59bf df4a 193e
00000050: c079 f73e 2952 ff3e eb99 18be 16e5 7e3f
00000060: 728b f3bf 4771 343e 0e71 c53d 056b e33c
00000070: 84c0 043f 185e 9fbe f9ab 253d e18a a03f
00000080: f101 ac3e 186c 1bbe 34b6 18be 0b45 fabd
00000090: 8ea4 a03f f885 803f 6eca d73d 2cff fdbf
000000a0: 2444 3d3e d492 133f 4217 8c3f 3637 a73c
000000b0: ea9a 193f 07b7 1e3f 0000 d53e 3a51 71bf
000000c0: d431 a63d be23 2bbd e815 373e 5795 96be
000000d0: 7bf0 b83f 6145 fd3e 7ab9 ca3e 67c8 b5be
000000e0: 91c8 8ebe 9ccd bc3e 7a29 073f b58f fa3e
000000f0: 30c1 773f 28e5 ab3e 8e7e fbbe e573 f33d
00000100: e3d2 8cbe 123b 0a3f 4eb7 213f 045c 1240
00000110: a2af 693d ad14 a73e 053a 8a3f 8b05 4b3f
00000120: b361 42be f22a 853e 9052 1b3f 3549 273f
00000130: 9bad ad3e 9125 0abe 4f59 363e 373e e4be
00000140: 6a5e 39be cb02 f53f 45d5 1e3f cbf1 c03e
00000150: b2dc f5be 4cee 9abf 84d5 0f3e fc9e 2b3f
00000160: 3a49 0e3d 1f08 5a3d 1a5c 8cbe ac0d 81be
00000170: 7e3e eebf 863f 9a3e a3cc 5b3e f84d 8cbe
00000180: 14f6 e13e 6923 233f dd3a 043f f480 11bf
00000190: 8860 043d f122 18bf 7d53 b33f d4c3 f43e
000001a0: f53d 95bd 7ba6 e23d bd71 593f ecfe 17bf
000001b0: 2c7c ca3b 95c8 933f d5ec 883f a271 483e
000001c0: 75a4 12c0 e70d 433e 090a 56be e203 4f3d
000001d0: eeef 5e3e a727 a43e 3d40 8a3f 04ae 88be
000001e0: a602 423f 473e 923e cb7f 92bd b67d b6be
000001f0: 607e 6c3f b673 f23e 1be3 4d3f fb5c 7c3e
00000200: 62be 0a3f eda0 c7be 66ca 443f 032a 173f
00000210: 5c59 953f f342 8ebc fa15 853f ccb2 14be
00000220: 4e28 593f 50af eebc a660 4d3f bbcf 353f
00000230: f231 993e 23a9 473e 0824 b7bd e105 823f
00000240: d197 233d 79c7 4fbe 182f 83bd 901a 0b3f
00000250: f2f4 973f feac b73e f704 ddbd 4c11 963f
00000260: 6558 e23d e064 693f 7748 9bbd c9d8 b13f
00000270: 95df c9b9 8697 1b3f af08 71bd 1356 fc3c
00000280: 698f 843f 6db4 223f 4576 5b3f f2b1 e33e
00000290: fd6a f4bd 89ce f13e c51a 6bbf b63d 6cbd
000002a0: 6493 813f b5d9 dd3e 3864 47bf 5c53 053f
000002b0: f874 0e3e a0a5 d63f db20 f3bf 8639 2f3f
000002c0: 3e9a 273e 7683 9a3f 4948 1d3f 7dd8 4abe
000002d0: 0bd2 85bf 7fc7 3bbf 3f19 27be 8bf9 d33e
000002e0: 8e9f 10c0 5720 95bf e54b e73d 30ad af3d
000002f0: b7e1 94bf 7046 7c3f acf4 033e 070f 153f
00000300: d30d b4bf 4497 b2bd 3a27 643e d005 163f
00000310: 39bc d13e 7aac 163e 3530 023e 43b2 25c0

sequential/dense_2/MatMul f4 [28, 10]
0.14652315 0.0057230275 0.93895227 0.5653996 0.09306756 -0.0059290673 -0.7811572 0.2163632
-0.10788202 -0.01378543 -0.94074535 0.4715856 -0.8119785 -2.1828842 0.71384245 -0.2629678
-0.4002126 -0.20333885 0.08395135 0.13088445 -0.017936902 0.021028953 -0.33789173 0.14211343
0.1981176 -0.35401908 -1.0382227 0.46061242 0.4151429 -0.62433344 -1.0189645 -0.2002163
-1.3783792 -0.7081095 -0.2961881 0.22877271 -0.29188964 0.15684476 0.08773325 0.610396
-0.014733348 -2.1063304 0.26534748 0.456587 -0.05630469 0.24744603 0.090483345 -0.6309017
-0.10959112 -1.1332787 -1.2606784 0.22495605 -1.3878118 0.12386425 0.61073166 -1.1084555
0.14229606 0.09059673 -1.1920954 0.17722717 -0.5928567 -1.8827928 -0.09702895 0.37650937
0.15681301 0.31668672 -0.2446242 -0.95071876 -0.4176148 0.53847927 -0.0036080724 -1.9076343
-0.08590036 0.4278357 0.044057705 0.51539207 -0.23764777 -0.8621831 -0.26945162 -0.13752487
-0.15039106 0.40434813 -1.1452649 -0.79311746 0.0143513465 -0.49914023 -0.3711253 0.28823802
0.363041 -0.40485066 -0.33193424 -0.32631034 -1.1760025 0.16840763 0.2654915 0.015525145
0.61256284 -1.8065429 -0.315216 -0.017964685 -0.98016495 0.31484842 -0.37547046 -0.3181476
-0.35833922 0.81966597 -0.98817253 0.043986786 -0.87190974 0.42341974 -1.0116805 -0.05821047
-1.8558366 0.5240459 -0.48819304 -0.51937747 -0.89861083 0.42580009 -0.35223156 0.3971769
0.5777049 0.16770893 0.31553626 0.18321638 -0.4799343 -1.0071009 -0.742856 0.24442722
0.42226666 -0.72637963 0.56983656 -0.4949397 0.029902007 0.42374122 -1.5753149 -0.38747725
0.21198802 0.43022546 -0.26760262 -0.90581536 -0.010529066 -0.23959841 -0.6376139 -0.1484285
0.51707137 -0.114804134 -1.6937898 0.3297279 0.48238704 -0.31432596 -0.5924293 -1.1597154
0.18428674 -0.07634913 -0.4902348 0.17686434 0.42716864 -0.57991636 -0.28790766 -0.63701904
-0.5849144 -0.5856991 0.5274295 -0.048669662 -0.5147153 0.02649643 0.2969481 -0.7168526
-0.34480736 -0.62345487 -0.8502834 -0.02679729 -1.0382714 -1.4060382 0.3383798 0.51030874
-1.5683416 0.049725674 -0.029280351 0.35688925 0.10330567 0.5053532 -1.3435733 -0.73958325
-0.43388894 -0.1671092 -0.7439598 -0.039285246 -0.03150359 0.44967335 -0.24111724 -0.02072583
-1.8737234 0.42673457 -0.22990927 -0.26528144 -0.80932677 0.37112662 -1.3065374 0.8358259
-1.4629349 0.004054601 -0.6131033 -1.0346671 0.4834154 0.54217637 -1.0482616 -0.82986516
-0.44892251 0.5579633 -1.3030707 -0.4900445 -0.2965311 -0.5982105 -0.09208828 0.750306
-0.46416676 -0.9388064 -0.8600177 0.30219966 -2.0933568 0.1462769 -0.08212179 -0.7447668
0.8147156 0.06550146 -0.2549221 -1.6476159 -1.0818399 0.19306365 -0.05079105 -0.5526651
-0.39244226 -1.0819645 0.19748072 0.06086786 -2.1195781 0.61586326 0.36804146 0.2017041
-0.53516227 0.11211552 -1.178951 0.72995526 -0.4201486 -0.3911907 0.2767734 -0.32028
-1.1091288 0.1056379 0.5026929 0.01771682 -0.71930045 0.03727022 -0.9833452 -0.019505337
00000000: 2a0a 163e 3c88 bb3b 2d5f 703f 07be 103f
00000010: 349a be3d 9f48 c2bb ebf9 47bf 518e 5d3e
00000020: 40f1 dcbd 49dc 61bc b0d4 70bf ab73 f13e
00000030: d3dd 4fbf 60b4 0bc0 61be 363f b7a3 86be
00000040: aae8 ccbe 0f38 50be afee ab3d 9306 063e
00000050: 69f0 92bc e944 ac3c 2500 adbe 2f86 113e
00000060: 57df 4a3e fd41 b5be 7be4 84bf 64d5 eb3e
00000070: 9c8d d43e 51d4 1fbf 6e6d 82bf 8005 4dbe
00000080: bb6e b0bf aa46 35bf f7a5 97be 6543 6a3e
00000090: 8f72 95be ea9b 203e 7dad b33d ea42 1c3f
000000a0: 2464 71bc 1ece 06c0 a0db 873e c5c5 e93e
000000b0: bf9f 66bd 7e62 7d3e 554f b93d c682 21bf
000000c0: 4f71 e0bd 470f 91bf e95d a1bf e15a 663e
000000d0: d1a3 b1bf 8aac fd3d e958 1c3f dfe1 8dbf
000000e0: 0fb6 113e c78a b93d 9596 98bf 0a7b 353e
000000f0: 75c5 17bf 5bff f0bf 1db7 c6bd d6c5 c03e
00000100: 9793 203e c324 a23e c47e 7abe 4e62 73bf
00000110: 9bd1 d5be c7d9 093f 6975 6cbb 5c2d f4bf
00000120: 87ec afbd 480d db3e da75 343d bcf0 033f
00000130: f059 73be 08b8 5cbf 90f5 89be 52d3 0cbe
00000140: 1d00 1abe b806 cf3e 0a98 92bf bf09 4bbf
00000150: e921 6b3c 4f8f ffbe 2304 bebe ef93 933e
00000160: 83e0 b93e 9648 cfbe 49f3 a9be 2612 a7be
00000170: 4087 96bf 0d73 2c3e 80ee 873e 2e5d 7e3c
00000180: ebd0 1c3f cc3c e7bf fe63 a1be ad2a 93bc
00000190: 17ec 7abf d033 a13e aa3d c0be 3ee4 a2be
000001a0: 3d78 b7be a1d5 513f e0f8 7cbf 7d2b 343d
000001b0: 7a35 5fbf 79ca d83e bf7e 81bf 1a6e 6ebd
000001c0: 0e8c edbf df27 063f 70f4 f9be ecf5 04bf
000001d0: 5c0b 66bf 7802 da3e b257 b4be c55a cb3e
000001e0: 78e4 133f e4bb 2b3e f88d a13e 139d 3b3e
000001f0: f3b9 f5be afe8 80bf d02b 3ebf 214b 7a3e
00000200: 5633 d83e 04f4 39bf cfe0 113f bd68 fdbe
00000210: 0ef5 f43c 9cf4 d83e eba3 c9bf 6b63 c6be
00000220: 6313 593e 8346 dc3e 3603 89be 84e3 67bf
00000230: 1b82 2cbc 4959 75be aa3a 23bf a4fd 17be
00000240: ca5e 043f 6e1e ebbd 1bce d8bf 18d2 a83e
00000250: 6ffb f63e 55ef a0be 72a9 17bf 8e71 94bf
00000260: aab5 3c3e ef5c 9cbd 0e00 fbbe ed1b 353e
00000270: d9b5 da3e 6675 14bf a268 93be ae13 23bf
00000280: f3bc 15bf 60f0 15bf 9f05 073f d759 47bd
00000290: 62c4 03bf 0b0f d93c 9509 983e a783 37bf
000002a0: 978a b0be bd9a 1fbf 2cac 59bf fe85 dbbc
000002b0: 14e6 84bf 0ff9 b3bf 1e40 ad3e 98a3 023f
000002c0: 6bbf c8bf 26ad 4b3d 59dd efbc 30ba b63e
000002d0: ec91 d33d d45e 013f 36fa abbf 5455 3dbf
000002e0: b126 debe ad1e 2bbe 2674 3ebf 91e9 20bd
000002f0: e909 01bd 963b e63e 70e7 76be 37c9 a9bc
00000300: 2bd6 efbf f47c da3e 566d 6bbe f8d2 87be
00000310: 0a30 4fbf 4f04 be3e 9e3c a7bf b0f8 553f
00000320: 7341 bbbf 75dc 843b 56f4 1cbf f96f 84bf
00000330: 3982 f73e 12cc 0a3f 702d 86bf 0b72 54bf
00000340: 2cd9 e5be afd6 0e3f 05cb a6bf 1de7 fabe
00000350: edd2 97be 5324 19bf c898 bcbd 0e14 403f
00000360: 44a7 edbe 9e55 70bf 1f2a 5cbf eab9 9a3e
00000370: 8ff9 05c0 9dc9 153e 782f a8bd 09a9 3ebf
00000380: 3491 503f a125 863d 2685 82be 14e5 d2bf
00000390: bb79 8abf 7ab2 453e 470a 50bd 767b 0dbf
000003a0: 31ee c8be d07d 8abf 6338 4a3e 9450 793d
000003b0: 2ba7 07c0 37a9 1d3f ee6f bc3e 858b 4e3e
000003c0: 6500 09bf d29c e53d dee7 96bf 59de 3a3f
000003d0: b81d d7be 264a c8be 3eb5 8d3e bdfb a3be
000003e0: eff7 8dbf af58 d83d 7bb0 003f dd22 913c
000003f0: 1324 38bf a9a8 183d 83bc 7bbf a8c9 9fbc
